…
', 'stage4.1.fuse_layers.3.2.0.0.weight', 'stage4.1.fuse_layers.3.2.0.1.weight', 'stage4.1.fuse_layers.3.2.0.1.bias', 'stage4.1.fuse_layers.3.2.0.1.running_mean', 'stage4.1.fuse_layers.3.2.0.1.running_var', 'stage4.1.fuse_layers.3.2.0.1.num_batches_tracked', 'stage4.1.fuse_layers.3.2.0.2.weight', 'stage4.1.fuse_layers.3.2.0.3.weight', 'stage4.1.fuse_layers.3.2.0.3.bias', 'stage4.1.fuse_layers.3.2.0.3.running_mean', 'stage4.1.fuse_layers.3.2.0.3.running_var', 'stage4.1.fuse_layers.3.2.0.3.num_batches_tracked'])
2021-05-04 07:02:49,017 - mmpose - INFO - TopDown(
  (backbone): HRViTV2(
    (conv1): Conv2d(3, 64, kernel_size=(3, 3), stride=(2, 2), padding=(1, 1), bias=False)
    (bn1): SyncBatchNorm(64, eps=1e-05, momentum=0.1, affine=True, track_running_stats=True)
    (conv2): Conv2d(64, 64, kernel_size=(3, 3), stride=(2, 2), padding=(1, 1), bias=False)
    (bn2): SyncBatchNorm(64, eps=1e-05, momentum=0.1, affine=True, track_running_stats=True)
    (relu): ReLU(inplace=True)
    (layer1): Sequential(
      (0): Bottleneck(
        (downsample): Sequential(
          (0): Conv2d(64, 256, kernel_size=(1, 1), stride=(1, 1), bias=False)
          (1): SyncBatchNorm(256, eps=1e-05, momentum=0.1, affine=True, track_running_stats=True)
        )
        (conv1): Conv2d(64, 64, kernel_size=(1, 1), stride=(1, 1), bias=False)
        (bn1): SyncBatchNorm(64, eps=1e-05, momentum=0.1, affine=True, track_running_stats=True)
        (conv2): Conv2d(64, 64, kernel_size=(3, 3), stride=(1, 1), padding=(1, 1), bias=False)
        (bn2): SyncBatchNorm(64, eps=1e-05, momentum=0.1, affine=True, track_running_stats=True)
        (conv3): Conv2d(64, 256, kernel_size=(1, 1), stride=(1, 1), bias=False)
        (bn3): SyncBatchNorm(256, eps=1e-05, momentum=0.1, affine=True, track_running_stats=True)
        (relu): ReLU(inplace=True)
      )
      (1): Bottleneck(
        (conv1): Conv2d(256, 64, kernel_size=(1, 1), stride=(1, 1), bias=False)
        (bn1): SyncBatchNorm(64, eps=1e-05, momentum=0.1, affine=True, track_running_stats=True)
        (conv2): Conv2d(64, 64, kernel_size=(3, 3), stride=(1, 1), padding=(1, 1), bias=False)
        (bn2): SyncBatchNorm(64, eps=1e-05, momentum=0.1, affine=True, track_running_stats=True)
        (conv3): Conv2d(64, 256, kernel_size=(1, 1), stride=(1, 1), bias=False)
        (bn3): SyncBatchNorm(256, eps=1e-05, momentum=0.1, affine=True, track_running_stats=True)
        (relu): ReLU(inplace=True)
      )
    )
    (transition1): ModuleList(
      (0): Sequential(
        (0): Conv2d(256, 18, kernel_size=(3, 3), stride=(1, 1), padding=(1, 1), bias=False)
        (1): SyncBatchNorm(18, eps=1e-05, momentum=0.1, affine=True, track_running_stats=True)
        (2): ReLU(inplace=True)
      )
      (1): Sequential(
        (0): Sequential(
          (0): Conv2d(256, 36, kernel_size=(3, 3), stride=(2, 2), padding=(1, 1), bias=False)
          (1): SyncBatchNorm(36, eps=1e-05, momentum=0.1, affine=True, track_running_stats=True)
          (2): ReLU(inplace=True)
        )
      )
    )
    (stage2): Sequential(
      (0): HighResolutionTransformerModule(
        (branches): ModuleList(
          (0): Sequential(
            (0): GeneralTransformerBlockV2(
              (attn): InterlacedPoolAttention(
                (attn): MHA_(
                  (k_proj): Linear(in_features=18, out_features=18, bias=True)
                  (v_proj): Linear(in_features=18, out_features=18, bias=True)
                  (q_proj): Linear(in_features=18, out_features=18, bias=True)
                  (out_proj): Linear(in_features=18, out_features=18, bias=True)
                )
              )
              (norm1): LayerNorm((18,), eps=1e-06, elementwise_affine=True)
              (norm2): LayerNorm((18,), eps=1e-06, elementwise_affine=True)
              (drop_path): Identity()
              (mlp): MlpDWBN(
                (fc1): Conv2d(18, 72, kernel_size=(1, 1), stride=(1, 1))
                (act1): GELU()
                (norm1): SyncBatchNorm(72, eps=1e-05, momentum=0.1, affine=True, track_running_stats=True)
                (dw3x3): Conv2d(72, 72, kernel_size=(3, 3), stride=(1, 1), padding=(1, 1), groups=72)
                (act2): Hardswish()
                (norm2): SyncBatchNorm(72, eps=1e-05, momentum=0.1, affine=True, track_running_stats=True)
                (fc2): Conv2d(72, 18, kernel_size=(1, 1), stride=(1, 1))
                (act3): GELU()
                (norm3): SyncBatchNorm(18, eps=1e-05, momentum=0.1, affine=True, track_running_stats=True)
                (drop): Dropout(p=0.0, inplace=False)
              )
            )
            (1): GeneralTransformerBlockV2(
              (attn): InterlacedPoolAttention(
                (attn): MHA_(
                  (k_proj): Linear(in_features=18, out_features=18, bias=True)
                  (v_proj): Linear(in_features=18, out_features=18, bias=True)
                  (q_proj): Linear(in_features=18, out_features=18, bias=True)
                  (out_proj): Linear(in_features=18, out_features=18, bias=True)
                )
              )
              (norm1): LayerNorm((18,), eps=1e-06, elementwise_affine=True)
              (norm2): LayerNorm((18,), eps=1e-06, elementwise_affine=True)
              (drop_path): DropPath()
              (mlp): MlpDWBN(
                (fc1): Conv2d(18, 72, kernel_size=(1, 1), stride=(1, 1))
                (act1): GELU()
                (norm1): SyncBatchNorm(72, eps=1e-05, momentum=0.1, affine=True, track_running_stats=True)
                (dw3x3): Conv2d(72, 72, kernel_size=(3, 3), stride=(1, 1), padding=(1, 1), groups=72)
                (act2): Hardswish()
                (norm2): SyncBatchNorm(72, eps=1e-05, momentum=0.1, affine=True, track_running_stats=True)
                (fc2): Conv2d(72, 18, kernel_size=(1, 1), stride=(1, 1))
                (act3): GELU()
                (norm3): SyncBatchNorm(18, eps=1e-05, momentum=0.1, affine=True, track_running_stats=True)
                (drop): Dropout(p=0.0, inplace=False)
              )
            )
          )
          (1): Sequential(
            (0): GeneralTransformerBlockV2(
              (attn): InterlacedPoolAttention(
                (attn): MHA_(
                  (k_proj): Linear(in_features=36, out_features=36, bias=True)
                  (v_proj): Linear(in_features=36, out_features=36, bias=True)
                  (q_proj): Linear(in_features=36, out_features=36, bias=True)
                  (out_proj): Linear(in_features=36, out_features=36, bias=True)
                )
              )
              (norm1): LayerNorm((36,), eps=1e-06, elementwise_affine=True)
              (norm2): LayerNorm((36,), eps=1e-06, elementwise_affine=True)
              (drop_path): Identity()
              (mlp): MlpDWBN(
                (fc1): Conv2d(36, 144, kernel_size=(1, 1), stride=(1, 1))
                (act1): GELU()
                (norm1): SyncBatchNorm(144, eps=1e-05, momentum=0.1, affine=True, track_running_stats=True)
                (dw3x3): Conv2d(144, 144, kernel_size=(3, 3), stride=(1, 1), padding=(1, 1), groups=144)
                (act2): Hardswish()
                (norm2): SyncBatchNorm(144, eps=1e-05, momentum=0.1, affine=True, track_running_stats=True)
                (fc2): Conv2d(144, 36, kernel_size=(1, 1), stride=(1, 1))
                (act3): GELU()
                (norm3): SyncBatchNorm(36, eps=1e-05, momentum=0.1, affine=True, track_running_stats=True)
                (drop): Dropout(p=0.0, inplace=False)
              )
            )
            (1): GeneralTransformerBlockV2(
              (attn): InterlacedPoolAttention(
                (attn): MHA_(
                  (k_proj): Linear(in_features=36, out_features=36, bias=True)
                  (v_proj): Linear(in_features=36, out_features=36, bias=True)
                  (q_proj): Linear(in_features=36, out_features=36, bias=True)
                  (out_proj): Linear(in_features=36, out_features=36, bias=True)
                )
              )
              (norm1): LayerNorm((36,), eps=1e-06, elementwise_affine=True)
              (norm2): LayerNorm((36,), eps=1e-06, elementwise_affine=True)
              (drop_path): DropPath()
              (mlp): MlpDWBN(
                (fc1): Conv2d(36, 144, kernel_size=(1, 1), stride=(1, 1))
                (act1): GELU()
                (norm1): SyncBatchNorm(144, eps=1e-05, momentum=0.1, affine=True, track_running_stats=True)
                (dw3x3): Conv2d(144, 144, kernel_size=(3, 3), stride=(1, 1), padding=(1, 1), groups=144)
                (act2): Hardswish()
                (norm2): SyncBatchNorm(144, eps=1e-05, momentum=0.1, affine=True, track_running_stats=True)
                (fc2): Conv2d(144, 36, kernel_size=(1, 1), stride=(1, 1))
                (act3): GELU()
                (norm3): SyncBatchNorm(36, eps=1e-05, momentum=0.1, affine=True, track_running_stats=True)
                (drop): Dropout(p=0.0, inplace=False)
              )
            )
          )
        )
        (fuse_layers): ModuleList(
          (0): ModuleList(
            (0): None
            (1): Sequential(
              (0): Conv2d(36, 18, kernel_size=(1, 1), stride=(1, 1), bias=False)
              (1): SyncBatchNorm(18, eps=1e-05, momentum=0.1, affine=True, track_running_stats=True)
              (2): Upsample(scale_factor=2.0, mode=bilinear)
            )
          )
          (1): ModuleList(
            (0): Sequential(
              (0): Sequential(
                (0): Conv2d(18, 18, kernel_size=(3, 3), stride=(2, 2), padding=(1, 1), groups=18, bias=False)
                (1): SyncBatchNorm(18, eps=1e-05, momentum=0.1, affine=True, track_running_stats=True)
                (2): Conv2d(18, 36, kernel_size=(1, 1), stride=(1, 1), bias=False)
                (3): SyncBatchNorm(36, eps=1e-05, momentum=0.1, affine=True, track_running_stats=True)
              )
            )
            (1): None
          )
        )
        (relu): ReLU(inplace=True)
      )
    )
    (transition2): ModuleList(
      (0): None
      (1): None
      (2): Sequential(
        (0): Sequential(
          (0): Conv2d(36, 72, kernel_size=(3, 3), stride=(2, 2), padding=(1, 1), bias=False)
          (1): SyncBatchNorm(72, eps=1e-05, momentum=0.1, affine=True, track_running_stats=True)
          (2): ReLU(inplace=True)
        )
      )
    )
    (stage3): Sequential(
      (0): HighResolutionTransformerModule(
        (branches): ModuleList(
          (0): Sequential(
            (0): GeneralTransformerBlockV2(
              (attn): InterlacedPoolAttention(
                (attn): MHA_(
                  (k_proj): Linear(in_features=18, out_features=18, bias=True)
                  (v_proj): Linear(in_features=18, out_features=18, bias=True)
                  (q_proj): Linear(in_features=18, out_features=18, bias=True)
                  (out_proj): Linear(in_features=18, out_features=18, bias=True)
                )
              )
              (norm1): LayerNorm((18,), eps=1e-06, elementwise_affine=True)
              (norm2): LayerNorm((18,), eps=1e-06, elementwise_affine=True)
              (drop_path): DropPath()
              (mlp): MlpDWBN(
                (fc1): Conv2d(18, 72, kernel_size=(1, 1), stride=(1, 1))
                (act1): GELU()
                (norm1): SyncBatchNorm(72, eps=1e-05, momentum=0.1, affine=True, track_running_stats=True)
                (dw3x3): Conv2d(72, 72, kernel_size=(3, 3), stride=(1, 1), padding=(1, 1), groups=72)
                (act2): Hardswish()
                (norm2): SyncBatchNorm(72, eps=1e-05, momentum=0.1, affine=True, track_running_stats=True)
                (fc2): Conv2d(72, 18, kernel_size=(1, 1), stride=(1, 1))
                (act3): GELU()
                (norm3): SyncBatchNorm(18, eps=1e-05, momentum=0.1, affine=True, track_running_stats=True)
                (drop): Dropout(p=0.0, inplace=False)
              )
            )
            (1): GeneralTransformerBlockV2(
              (attn): InterlacedPoolAttention(
                (attn): MHA_(
                  (k_proj): Linear(in_features=18, out_features=18, bias=True)
                  (v_proj): Linear(in_features=18, out_features=18, bias=True)
                  (q_proj): Linear(in_features=18, out_features=18, bias=True)
                  (out_proj): Linear(in_features=18, out_features=18, bias=True)
                )
              )
              (norm1): LayerNorm((18,), eps=1e-06, elementwise_affine=True)
              (norm2): LayerNorm((18,), eps=1e-06, elementwise_affine=True)
              (drop_path): DropPath()
              (mlp): MlpDWBN(
                (fc1): Conv2d(18, 72, kernel_size=(1, 1), stride=(1, 1))
                (act1): GELU()
                (norm1): SyncBatchNorm(72, eps=1e-05, momentum=0.1, affine=True, track_running_stats=True)
                (dw3x3): Conv2d(72, 72, kernel_size=(3, 3), stride=(1, 1), padding=(1, 1), groups=72)
                (act2): Hardswish()
                (norm2): SyncBatchNorm(72, eps=1e-05, momentum=0.1, affine=True, track_running_stats=True)
                (fc2): Conv2d(72, 18, kernel_size=(1, 1), stride=(1, 1))
                (act3): GELU()
                (norm3): SyncBatchNorm(18, eps=1e-05, momentum=0.1, affine=True, track_running_stats=True)
                (drop): Dropout(p=0.0, inplace=False)
              )
            )
          )
          (1): Sequential(
            (0): GeneralTransformerBlockV2(
              (attn): InterlacedPoolAttention(
                (attn): MHA_(
                  (k_proj): Linear(in_features=36, out_features=36, bias=True)
                  (v_proj): Linear(in_features=36, out_features=36, bias=True)
                  (q_proj): Linear(in_features=36, out_features=36, bias=True)
                  (out_proj): Linear(in_features=36, out_features=36, bias=True)
                )
              )
              (norm1): LayerNorm((36,), eps=1e-06, elementwise_affine=True)
              (norm2): LayerNorm((36,), eps=1e-06, elementwise_affine=True)
              (drop_path): DropPath()
              (mlp): MlpDWBN(
                (fc1): Conv2d(36, 144, kernel_size=(1, 1), stride=(1, 1))
                (act1): GELU()
                (norm1): SyncBatchNorm(144, eps=1e-05, momentum=0.1, affine=True, track_running_stats=True)
                (dw3x3): Conv2d(144, 144, kernel_size=(3, 3), stride=(1, 1), padding=(1, 1), groups=144)
                (act2): Hardswish()
                (norm2): SyncBatchNorm(144, eps=1e-05, momentum=0.1, affine=True, track_running_stats=True)
                (fc2): Conv2d(144, 36, kernel_size=(1, 1), stride=(1, 1))
                (act3): GELU()
                (norm3): SyncBatchNorm(36, eps=1e-05, momentum=0.1, affine=True, track_running_stats=True)
                (drop): Dropout(p=0.0, inplace=False)
              )
            )
            (1): GeneralTransformerBlockV2(
              (attn): InterlacedPoolAttention(
                (attn): MHA_(
                  (k_proj): Linear(in_features=36, out_features=36, bias=True)
                  (v_proj): Linear(in_features=36, out_features=36, bias=True)
                  (q_proj): Linear(in_features=36, out_features=36, bias=True)
                  (out_proj): Linear(in_features=36, out_features=36, bias=True)
                )
              )
              (norm1): LayerNorm((36,), eps=1e-06, elementwise_affine=True)
              (norm2): LayerNorm((36,), eps=1e-06, elementwise_affine=True)
              (drop_path): DropPath()
              (mlp): MlpDWBN(
                (fc1): Conv2d(36, 144, kernel_size=(1, 1), stride=(1, 1))
                (act1): GELU()
                (norm1): SyncBatchNorm(144, eps=1e-05, momentum=0.1, affine=True, track_running_stats=True)
                (dw3x3): Conv2d(144, 144, kernel_size=(3, 3), stride=(1, 1), padding=(1, 1), groups=144)
                (act2): Hardswish()
                (norm2): SyncBatchNorm(144, eps=1e-05, momentum=0.1, affine=True, track_running_stats=True)
                (fc2): Conv2d(144, 36, kernel_size=(1, 1), stride=(1, 1))
                (act3): GELU()
                (norm3): SyncBatchNorm(36, eps=1e-05, momentum=0.1, affine=True, track_running_stats=True)
                (drop): Dropout(p=0.0, inplace=False)
              )
            )
          )
          (2): Sequential(
            (0): GeneralTransformerBlockV2(
              (attn): InterlacedPoolAttention(
                (attn): MHA_(
                  (k_proj): Linear(in_features=72, out_features=72, bias=True)
                  (v_proj): Linear(in_features=72, out_features=72, bias=True)
                  (q_proj): Linear(in_features=72, out_features=72, bias=True)
                  (out_proj): Linear(in_features=72, out_features=72, bias=True)
                )
              )
              (norm1): LayerNorm((72,), eps=1e-06, elementwise_affine=True)
              (norm2): LayerNorm((72,), eps=1e-06, elementwise_affine=True)
              (drop_path): DropPath()
              (mlp): MlpDWBN(
                (fc1): Conv2d(72, 288, kernel_size=(1, 1), stride=(1, 1))
                (act1): GELU()
                (norm1): SyncBatchNorm(288, eps=1e-05, momentum=0.1, affine=True, track_running_stats=True)
                (dw3x3): Conv2d(288, 288, kernel_size=(3, 3), stride=(1, 1), padding=(1, 1), groups=288)
                (act2): Hardswish()
                (norm2): SyncBatchNorm(288, eps=1e-05, momentum=0.1, affine=True, track_running_stats=True)
                (fc2): Conv2d(288, 72, kernel_size=(1, 1), stride=(1, 1))
                (act3): GELU()
                (norm3): SyncBatchNorm(72, eps=1e-05, momentum=0.1, affine=True, track_running_stats=True)
                (drop): Dropout(p=0.0, inplace=False)
              )
            )
            (1): GeneralTransformerBlockV2(
              (attn): InterlacedPoolAttention(
                (attn): MHA_(
                  (k_proj): Linear(in_features=72, out_features=72, bias=True)
                  (v_proj): Linear(in_features=72, out_features=72, bias=True)
                  (q_proj): Linear(in_features=72, out_features=72, bias=True)
                  (out_proj): Linear(in_features=72, out_features=72, bias=True)
                )
              )
              (norm1): LayerNorm((72,), eps=1e-06, elementwise_affine=True)
              (norm2): LayerNorm((72,), eps=1e-06, elementwise_affine=True)
              (drop_path): DropPath()
              (mlp): MlpDWBN(
                (fc1): Conv2d(72, 288, kernel_size=(1, 1), stride=(1, 1))
                (act1): GELU()
                (norm1): SyncBatchNorm(288, eps=1e-05, momentum=0.1, affine=True, track_running_stats=True)
                (dw3x3): Conv2d(288, 288, kernel_size=(3, 3), stride=(1, 1), padding=(1, 1), groups=288)
                (act2): Hardswish()
                (norm2): SyncBatchNorm(288, eps=1e-05, momentum=0.1, affine=True, track_running_stats=True)
                (fc2): Conv2d(288, 72, kernel_size=(1, 1), stride=(1, 1))
                (act3): GELU()
                (norm3): SyncBatchNorm(72, eps=1e-05, momentum=0.1, affine=True, track_running_stats=True)
                (drop): Dropout(p=0.0, inplace=False)
              )
            )
          )
        )
        (fuse_layers): ModuleList(
          (0): ModuleList(
            (0): None
            (1): Sequential(
              (0): Conv2d(36, 18, kernel_size=(1, 1), stride=(1, 1), bias=False)
              (1): SyncBatchNorm(18, eps=1e-05, momentum=0.1, affine=True, track_running_stats=True)
              (2): Upsample(scale_factor=2.0, mode=bilinear)
            )
            (2): Sequential(
              (0): Conv2d(72, 18, kernel_size=(1, 1), stride=(1, 1), bias=False)
              (1): SyncBatchNorm(18, eps=1e-05, momentum=0.1, affine=True, track_running_stats=True)
              (2): Upsample(scale_factor=4.0, mode=bilinear)
            )
          )
          (1): ModuleList(
            (0): Sequential(
              (0): Sequential(
                (0): Conv2d(18, 18, kernel_size=(3, 3), stride=(2, 2), padding=(1, 1), groups=18, bias=False)
                (1): SyncBatchNorm(18, eps=1e-05, momentum=0.1, affine=True, track_running_stats=True)
                (2): Conv2d(18, 36, kernel_size=(1, 1), stride=(1, 1), bias=False)
                (3): SyncBatchNorm(36, eps=1e-05, momentum=0.1, affine=True, track_running_stats=True)
              )
            )
            (1): None
            (2): Sequential(
              (0): Conv2d(72, 36, kernel_size=(1, 1), stride=(1, 1), bias=False)
              (1): SyncBatchNorm(36, eps=1e-05, momentum=0.1, affine=True, track_running_stats=True)
              (2): Upsample(scale_factor=2.0, mode=bilinear)
            )
          )
          (2): ModuleList(
            (0): Sequential(
              (0): Sequential(
                (0): Conv2d(18, 18, kernel_size=(3, 3), stride=(2, 2), padding=(1, 1), groups=18, bias=False)
                (1): SyncBatchNorm(18, eps=1e-05, momentum=0.1, affine=True, track_running_stats=True)
                (2): Conv2d(18, 18, kernel_size=(1, 1), stride=(1, 1), bias=False)
                (3): SyncBatchNorm(18, eps=1e-05, momentum=0.1, affine=True, track_running_stats=True)
                (4): ReLU(inplace=True)
              )
              (1): Sequential(
                (0): Conv2d(18, 18, kernel_size=(3, 3), stride=(2, 2), padding=(1, 1), groups=18, bias=False)
                (1): SyncBatchNorm(18, eps=1e-05, momentum=0.1, affine=True, track_running_stats=True)
                (2): Conv2d(18, 72, kernel_size=(1, 1), stride=(1, 1), bias=False)
                (3): SyncBatchNorm(72, eps=1e-05, momentum=0.1, affine=True, track_running_stats=True)
              )
            )
            (1): Sequential(
              (0): Sequential(
                (0): Conv2d(36, 36, kernel_size=(3, 3), stride=(2, 2), padding=(1, 1), groups=36, bias=False)
                (1): SyncBatchNorm(36, eps=1e-05, momentum=0.1, affine=True, track_running_stats=True)
                (2): Conv2d(36, 72, kernel_size=(1, 1), stride=(1, 1), bias=False)
                (3): SyncBatchNorm(72, eps=1e-05, momentum=0.1, affine=True, track_running_stats=True)
              )
            )
            (2): None
          )
        )
        (relu): ReLU(inplace=True)
      )
      (1): HighResolutionTransformerModule(
        (branches): ModuleList(
          (0): Sequential(
            (0): GeneralTransformerBlockV2(
              (attn): InterlacedPoolAttention(
                (attn): MHA_(
                  (k_proj): Linear(in_features=18, out_features=18, bias=True)
                  (v_proj): Linear(in_features=18, out_features=18, bias=True)
                  (q_proj): Linear(in_features=18, out_features=18, bias=True)
                  (out_proj): Linear(in_features=18, out_features=18, bias=True)
                )
              )
              (norm1): LayerNorm((18,), eps=1e-06, elementwise_affine=True)
              (norm2): LayerNorm((18,), eps=1e-06, elementwise_affine=True)
              (drop_path): DropPath()
              (mlp): MlpDWBN(
                (fc1): Conv2d(18, 72, kernel_size=(1, 1), stride=(1, 1))
                (act1): GELU()
                (norm1): SyncBatchNorm(72, eps=1e-05, momentum=0.1, affine=True, track_running_stats=True)
                (dw3x3): Conv2d(72, 72, kernel_size=(3, 3), stride=(1, 1), padding=(1, 1), groups=72)
                (act2): Hardswish()
                (norm2): SyncBatchNorm(72, eps=1e-05, momentum=0.1, affine=True, track_running_stats=True)
                (fc2): Conv2d(72, 18, kernel_size=(1, 1), stride=(1, 1))
                (act3): GELU()
                (norm3): SyncBatchNorm(18, eps=1e-05, momentum=0.1, affine=True, track_running_stats=True)
                (drop): Dropout(p=0.0, inplace=False)
              )
            )
            (1): GeneralTransformerBlockV2(
              (attn): InterlacedPoolAttention(
                (attn): MHA_(
                  (k_proj): Linear(in_features=18, out_features=18, bias=True)
                  (v_proj): Linear(in_features=18, out_features=18, bias=True)
                  (q_proj): Linear(in_features=18, out_features=18, bias=True)
                  (out_proj): Linear(in_features=18, out_features=18, bias=True)
                )
              )
              (norm1): LayerNorm((18,), eps=1e-06, elementwise_affine=True)
              (norm2): LayerNorm((18,), eps=1e-06, elementwise_affine=True)
              (drop_path): DropPath()
              (mlp): MlpDWBN(
                (fc1): Conv2d(18, 72, kernel_size=(1, 1), stride=(1, 1))
                (act1): GELU()
                (norm1): SyncBatchNorm(72, eps=1e-05, momentum=0.1, affine=True, track_running_stats=True)
                (dw3x3): Conv2d(72, 72, kernel_size=(3, 3), stride=(1, 1), padding=(1, 1), groups=72)
                (act2): Hardswish()
                (norm2): SyncBatchNorm(72, eps=1e-05, momentum=0.1, affine=True, track_running_stats=True)
                (fc2): Conv2d(72, 18, kernel_size=(1, 1), stride=(1, 1))
                (act3): GELU()
                (norm3): SyncBatchNorm(18, eps=1e-05, momentum=0.1, affine=True, track_running_stats=True)
                (drop): Dropout(p=0.0, inplace=False)
              )
            )
          )
          (1): Sequential(
            (0): GeneralTransformerBlockV2(
              (attn): InterlacedPoolAttention(
                (attn): MHA_(
                  (k_proj): Linear(in_features=36, out_features=36, bias=True)
                  (v_proj): Linear(in_features=36, out_features=36, bias=True)
                  (q_proj): Linear(in_features=36, out_features=36, bias=True)
                  (out_proj): Linear(in_features=36, out_features=36, bias=True)
                )
              )
              (norm1): LayerNorm((36,), eps=1e-06, elementwise_affine=True)
              (norm2): LayerNorm((36,), eps=1e-06, elementwise_affine=True)
              (drop_path): DropPath()
              (mlp): MlpDWBN(
                (fc1): Conv2d(36, 144, kernel_size=(1, 1), stride=(1, 1))
                (act1): GELU()
                (norm1): SyncBatchNorm(144, eps=1e-05, momentum=0.1, affine=True, track_running_stats=True)
                (dw3x3): Conv2d(144, 144, kernel_size=(3, 3), stride=(1, 1), padding=(1, 1), groups=144)
                (act2): Hardswish()
                (norm2): SyncBatchNorm(144, eps=1e-05, momentum=0.1, affine=True, track_running_stats=True)
                (fc2): Conv2d(144, 36, kernel_size=(1, 1), stride=(1, 1))
                (act3): GELU()
                (norm3): SyncBatchNorm(36, eps=1e-05, momentum=0.1, affine=True, track_running_stats=True)
                (drop): Dropout(p=0.0, inplace=False)
              )
            )
            (1): GeneralTransformerBlockV2(
              (attn): InterlacedPoolAttention(
                (attn): MHA_(
                  (k_proj): Linear(in_features=36, out_features=36, bias=True)
                  (v_proj): Linear(in_features=36, out_features=36, bias=True)
                  (q_proj): Linear(in_features=36, out_features=36, bias=True)
                  (out_proj): Linear(in_features=36, out_features=36, bias=True)
                )
              )
              (norm1): LayerNorm((36,), eps=1e-06, elementwise_affine=True)
              (norm2): LayerNorm((36,), eps=1e-06, elementwise_affine=True)
              (drop_path): DropPath()
              (mlp): MlpDWBN(
                (fc1): Conv2d(36, 144, kernel_size=(1, 1), stride=(1, 1))
                (act1): GELU()
                (norm1): SyncBatchNorm(144, eps=1e-05, momentum=0.1, affine=True, track_running_stats=True)
                (dw3x3): Conv2d(144, 144, kernel_size=(3, 3), stride=(1, 1), padding=(1, 1), groups=144)
                (act2): Hardswish()
                (norm2): SyncBatchNorm(144, eps=1e-05, momentum=0.1, affine=True, track_running_stats=True)
                (fc2): Conv2d(144, 36, kernel_size=(1, 1), stride=(1, 1))
                (act3): GELU()
                (norm3): SyncBatchNorm(36, eps=1e-05, momentum=0.1, affine=True, track_running_stats=True)
                (drop): Dropout(p=0.0, inplace=False)
              )
            )
          )
          (2): Sequential(
            (0): GeneralTransformerBlockV2(
              (attn): InterlacedPoolAttention(
                (attn): MHA_(
                  (k_proj): Linear(in_features=72, out_features=72, bias=True)
                  (v_proj): Linear(in_features=72, out_features=72, bias=True)
                  (q_proj): Linear(in_features=72, out_features=72, bias=True)
                  (out_proj): Linear(in_features=72, out_features=72, bias=True)
                )
              )
              (norm1): LayerNorm((72,), eps=1e-06, elementwise_affine=True)
              (norm2): LayerNorm((72,), eps=1e-06, elementwise_affine=True)
              (drop_path): DropPath()
              (mlp): MlpDWBN(
                (fc1): Conv2d(72, 288, kernel_size=(1, 1), stride=(1, 1))
                (act1): GELU()
                (norm1): SyncBatchNorm(288, eps=1e-05, momentum=0.1, affine=True, track_running_stats=True)
                (dw3x3): Conv2d(288, 288, kernel_size=(3, 3), stride=(1, 1), padding=(1, 1), groups=288)
                (act2): Hardswish()
                (norm2): SyncBatchNorm(288, eps=1e-05, momentum=0.1, affine=True, track_running_stats=True)
                (fc2): Conv2d(288, 72, kernel_size=(1, 1), stride=(1, 1))
                (act3): GELU()
                (norm3): SyncBatchNorm(72, eps=1e-05, momentum=0.1, affine=True, track_running_stats=True)
                (drop): Dropout(p=0.0, inplace=False)
              )
            )
            (1): GeneralTransformerBlockV2(
              (attn): InterlacedPoolAttention(
                (attn): MHA_(
                  (k_proj): Linear(in_features=72, out_features=72, bias=True)
                  (v_proj): Linear(in_features=72, out_features=72, bias=True)
                  (q_proj): Linear(in_features=72, out_features=72, bias=True)
                  (out_proj): Linear(in_features=72, out_features=72, bias=True)
                )
              )
              (norm1): LayerNorm((72,), eps=1e-06, elementwise_affine=True)
              (norm2): LayerNorm((72,), eps=1e-06, elementwise_affine=True)
              (drop_path): DropPath()
              (mlp): MlpDWBN(
                (fc1): Conv2d(72, 288, kernel_size=(1, 1), stride=(1, 1))
                (act1): GELU()
                (norm1): SyncBatchNorm(288, eps=1e-05, momentum=0.1, affine=True, track_running_stats=True)
                (dw3x3): Conv2d(288, 288, kernel_size=(3, 3), stride=(1, 1), padding=(1, 1), groups=288)
                (act2): Hardswish()
                (norm2): SyncBatchNorm(288, eps=1e-05, momentum=0.1, affine=True, track_running_stats=True)
                (fc2): Conv2d(288, 72, kernel_size=(1, 1), stride=(1, 1))
                (act3): GELU()
                (norm3): SyncBatchNorm(72, eps=1e-05, momentum=0.1, affine=True, track_running_stats=True)
                (drop): Dropout(p=0.0, inplace=False)
              )
            )
          )
        )
        (fuse_layers): ModuleList(
          (0): ModuleList(
            (0): None
            (1): Sequential(
              (0): Conv2d(36, 18, kernel_size=(1, 1), stride=(1, 1), bias=False)
              (1): SyncBatchNorm(18, eps=1e-05, momentum=0.1, affine=True, track_running_stats=True)
              (2): Upsample(scale_factor=2.0, mode=bilinear)
            )
            (2): Sequential(
              (0): Conv2d(72, 18, kernel_size=(1, 1), stride=(1, 1), bias=False)
              (1): SyncBatchNorm(18, eps=1e-05, momentum=0.1, affine=True, track_running_stats=True)
              (2): Upsample(scale_factor=4.0, mode=bilinear)
            )
          )
          (1): ModuleList(
            (0): Sequential(
              (0): Sequential(
                (0): Conv2d(18, 18, kernel_size=(3, 3), stride=(2, 2), padding=(1, 1), groups=18, bias=False)
                (1): SyncBatchNorm(18, eps=1e-05, momentum=0.1, affine=True, track_running_stats=True)
                (2): Conv2d(18, 36, kernel_size=(1, 1), stride=(1, 1), bias=False)
                (3): SyncBatchNorm(36, eps=1e-05, momentum=0.1, affine=True, track_running_stats=True)
              )
            )
            (1): None
            (2): Sequential(
              (0): Conv2d(72, 36, kernel_size=(1, 1), stride=(1, 1), bias=False)
              (1): SyncBatchNorm(36, eps=1e-05, momentum=0.1, affine=True, track_running_stats=True)
              (2): Upsample(scale_factor=2.0, mode=bilinear)
            )
          )
          (2): ModuleList(
            (0): Sequential(
              (0): Sequential(
                (0): Conv2d(18, 18, kernel_size=(3, 3), stride=(2, 2), padding=(1, 1), groups=18, bias=False)
                (1): SyncBatchNorm(18, eps=1e-05, momentum=0.1, affine=True, track_running_stats=True)
                (2): Conv2d(18, 18, kernel_size=(1, 1), stride=(1, 1), bias=False)
                (3): SyncBatchNorm(18, eps=1e-05, momentum=0.1, affine=True, track_running_stats=True)
                (4): ReLU(inplace=True)
              )
              (1): Sequential(
                (0): Conv2d(18, 18, kernel_size=(3, 3), stride=(2, 2), padding=(1, 1), groups=18, bias=False)
                (1): SyncBatchNorm(18, eps=1e-05, momentum=0.1, affine=True, track_running_stats=True)
                (2): Conv2d(18, 72, kernel_size=(1, 1), stride=(1, 1), bias=False)
                (3): SyncBatchNorm(72, eps=1e-05, momentum=0.1, affine=True, track_running_stats=True)
              )
            )
            (1): Sequential(
              (0): Sequential(
                (0): Conv2d(36, 36, kernel_size=(3, 3), stride=(2, 2), padding=(1, 1), groups=36, bias=False)
                (1): SyncBatchNorm(36, eps=1e-05, momentum=0.1, affine=True, track_running_stats=True)
                (2): Conv2d(36, 72, kernel_size=(1, 1), stride=(1, 1), bias=False)
                (3): SyncBatchNorm(72, eps=1e-05, momentum=0.1, affine=True, track_running_stats=True)
              )
            )
            (2): None
          )
        )
        (relu): ReLU(inplace=True)
      )
      (2): HighResolutionTransformerModule(
        (branches): ModuleList(
          (0): Sequential(
            (0): GeneralTransformerBlockV2(
              (attn): InterlacedPoolAttention(
                (attn): MHA_(
                  (k_proj): Linear(in_features=18, out_features=18, bias=True)
                  (v_proj): Linear(in_features=18, out_features=18, bias=True)
                  (q_proj): Linear(in_features=18, out_features=18, bias=True)
                  (out_proj): Linear(in_features=18, out_features=18, bias=True)
                )
              )
              (norm1): LayerNorm((18,), eps=1e-06, elementwise_affine=True)
              (norm2): LayerNorm((18,), eps=1e-06, elementwise_affine=True)
              (drop_path): DropPath()
              (mlp): MlpDWBN(
                (fc1): Conv2d(18, 72, kernel_size=(1, 1), stride=(1, 1))
                (act1): GELU()
                (norm1): SyncBatchNorm(72, eps=1e-05, momentum=0.1, affine=True, track_running_stats=True)
                (dw3x3): Conv2d(72, 72, kernel_size=(3, 3), stride=(1, 1), padding=(1, 1), groups=72)
                (act2): Hardswish()
                (norm2): SyncBatchNorm(72, eps=1e-05, momentum=0.1, affine=True, track_running_stats=True)
                (fc2): Conv2d(72, 18, kernel_size=(1, 1), stride=(1, 1))
                (act3): GELU()
                (norm3): SyncBatchNorm(18, eps=1e-05, momentum=0.1, affine=True, track_running_stats=True)
                (drop): Dropout(p=0.0, inplace=False)
              )
            )
            (1): GeneralTransformerBlockV2(
              (attn): InterlacedPoolAttention(
                (attn): MHA_(
                  (k_proj): Linear(in_features=18, out_features=18, bias=True)
                  (v_proj): Linear(in_features=18, out_features=18, bias=True)
                  (q_proj): Linear(in_features=18, out_features=18, bias=True)
                  (out_proj): Linear(in_features=18, out_features=18, bias=True)
                )
              )
              (norm1): LayerNorm((18,), eps=1e-06, elementwise_affine=True)
              (norm2): LayerNorm((18,), eps=1e-06, elementwise_affine=True)
              (drop_path): DropPath()
              (mlp): MlpDWBN(
                (fc1): Conv2d(18, 72, kernel_size=(1, 1), stride=(1, 1))
                (act1): GELU()
                (norm1): SyncBatchNorm(72, eps=1e-05, momentum=0.1, affine=True, track_running_stats=True)
                (dw3x3): Conv2d(72, 72, kernel_size=(3, 3), stride=(1, 1), padding=(1, 1), groups=72)
                (act2): Hardswish()
                (norm2): SyncBatchNorm(72, eps=1e-05, momentum=0.1, affine=True, track_running_stats=True)
                (fc2): Conv2d(72, 18, kernel_size=(1, 1), stride=(1, 1))
                (act3): GELU()
                (norm3): SyncBatchNorm(18, eps=1e-05, momentum=0.1, affine=True, track_running_stats=True)
                (drop): Dropout(p=0.0, inplace=False)
              )
            )
          )
          (1): Sequential(
            (0): GeneralTransformerBlockV2(
              (attn): InterlacedPoolAttention(
                (attn): MHA_(
                  (k_proj): Linear(in_features=36, out_features=36, bias=True)
                  (v_proj): Linear(in_features=36, out_features=36, bias=True)
                  (q_proj): Linear(in_features=36, out_features=36, bias=True)
                  (out_proj): Linear(in_features=36, out_features=36, bias=True)
                )
              )
              (norm1): LayerNorm((36,), eps=1e-06, elementwise_affine=True)
              (norm2): LayerNorm((36,), eps=1e-06, elementwise_affine=True)
              (drop_path): DropPath()
              (mlp): MlpDWBN(
                (fc1): Conv2d(36, 144, kernel_size=(1, 1), stride=(1, 1))
                (act1): GELU()
                (norm1): SyncBatchNorm(144, eps=1e-05, momentum=0.1, affine=True, track_running_stats=True)
                (dw3x3): Conv2d(144, 144, kernel_size=(3, 3), stride=(1, 1), padding=(1, 1), groups=144)
                (act2): Hardswish()
                (norm2): SyncBatchNorm(144, eps=1e-05, momentum=0.1, affine=True, track_running_stats=True)
                (fc2): Conv2d(144, 36, kernel_size=(1, 1), stride=(1, 1))
                (act3): GELU()
                (norm3): SyncBatchNorm(36, eps=1e-05, momentum=0.1, affine=True, track_running_stats=True)
                (drop): Dropout(p=0.0, inplace=False)
              )
            )
            (1): GeneralTransformerBlockV2(
              (attn): InterlacedPoolAttention(
                (attn): MHA_(
                  (k_proj): Linear(in_features=36, out_features=36, bias=True)
                  (v_proj): Linear(in_features=36, out_features=36, bias=True)
                  (q_proj): Linear(in_features=36, out_features=36, bias=True)
                  (out_proj): Linear(in_features=36, out_features=36, bias=True)
                )
              )
              (norm1): LayerNorm((36,), eps=1e-06, elementwise_affine=True)
              (norm2): LayerNorm((36,), eps=1e-06, elementwise_affine=True)
              (drop_path): DropPath()
              (mlp): MlpDWBN(
                (fc1): Conv2d(36, 144, kernel_size=(1, 1), stride=(1, 1))
                (act1): GELU()
                (norm1): SyncBatchNorm(144, eps=1e-05, momentum=0.1, affine=True, track_running_stats=True)
                (dw3x3): Conv2d(144, 144, kernel_size=(3, 3), stride=(1, 1), padding=(1, 1), groups=144)
                (act2): Hardswish()
                (norm2): SyncBatchNorm(144, eps=1e-05, momentum=0.1, affine=True, track_running_stats=True)
                (fc2): Conv2d(144, 36, kernel_size=(1, 1), stride=(1, 1))
                (act3): GELU()
                (norm3): SyncBatchNorm(36, eps=1e-05, momentum=0.1, affine=True, track_running_stats=True)
                (drop): Dropout(p=0.0, inplace=False)
              )
            )
          )
          (2): Sequential(
            (0): GeneralTransformerBlockV2(
              (attn): InterlacedPoolAttention(
                (attn): MHA_(
                  (k_proj): Linear(in_features=72, out_features=72, bias=True)
                  (v_proj): Linear(in_features=72, out_features=72, bias=True)
                  (q_proj): Linear(in_features=72, out_features=72, bias=True)
                  (out_proj): Linear(in_features=72, out_features=72, bias=True)
                )
              )
              (norm1): LayerNorm((72,), eps=1e-06, elementwise_affine=True)
              (norm2): LayerNorm((72,), eps=1e-06, elementwise_affine=True)
              (drop_path): DropPath()
              (mlp): MlpDWBN(
                (fc1): Conv2d(72, 288, kernel_size=(1, 1), stride=(1, 1))
                (act1): GELU()
                (norm1): SyncBatchNorm(288, eps=1e-05, momentum=0.1, affine=True, track_running_stats=True)
                (dw3x3): Conv2d(288, 288, kernel_size=(3, 3), stride=(1, 1), padding=(1, 1), groups=288)
                (act2): Hardswish()
                (norm2): SyncBatchNorm(288, eps=1e-05, momentum=0.1, affine=True, track_running_stats=True)
                (fc2): Conv2d(288, 72, kernel_size=(1, 1), stride=(1, 1))
                (act3): GELU()
                (norm3): SyncBatchNorm(72, eps=1e-05, momentum=0.1, affine=True, track_running_stats=True)
                (drop): Dropout(p=0.0, inplace=False)
              )
            )
            (1): GeneralTransformerBlockV2(
              (attn): InterlacedPoolAttention(
                (attn): MHA_(
                  (k_proj): Linear(in_features=72, out_features=72, bias=True)
                  (v_proj): Linear(in_features=72, out_features=72, bias=True)
                  (q_proj): Linear(in_features=72, out_features=72, bias=True)
                  (out_proj): Linear(in_features=72, out_features=72, bias=True)
                )
              )
              (norm1): LayerNorm((72,), eps=1e-06, elementwise_affine=True)
              (norm2): LayerNorm((72,), eps=1e-06, elementwise_affine=True)
              (drop_path): DropPath()
              (mlp): MlpDWBN(
                (fc1): Conv2d(72, 288, kernel_size=(1, 1), stride=(1, 1))
                (act1): GELU()
                (norm1): SyncBatchNorm(288, eps=1e-05, momentum=0.1, affine=True, track_running_stats=True)
                (dw3x3): Conv2d(288, 288, kernel_size=(3, 3), stride=(1, 1), padding=(1, 1), groups=288)
                (act2): Hardswish()
                (norm2): SyncBatchNorm(288, eps=1e-05, momentum=0.1, affine=True, track_running_stats=True)
                (fc2): Conv2d(288, 72, kernel_size=(1, 1), stride=(1, 1))
                (act3): GELU()
                (norm3): SyncBatchNorm(72, eps=1e-05, momentum=0.1, affine=True, track_running_stats=True)
                (drop): Dropout(p=0.0, inplace=False)
              )
            )
          )
        )
        (fuse_layers): ModuleList(
          (0): ModuleList(
            (0): None
            (1): Sequential(
              (0): Conv2d(36, 18, kernel_size=(1, 1), stride=(1, 1), bias=False)
              (1): SyncBatchNorm(18, eps=1e-05, momentum=0.1, affine=True, track_running_stats=True)
              (2): Upsample(scale_factor=2.0, mode=bilinear)
            )
            (2): Sequential(
              (0): Conv2d(72, 18, kernel_size=(1, 1), stride=(1, 1), bias=False)
              (1): SyncBatchNorm(18, eps=1e-05, momentum=0.1, affine=True, track_running_stats=True)
              (2): Upsample(scale_factor=4.0, mode=bilinear)
            )
          )
          (1): ModuleList(
            (0): Sequential(
              (0): Sequential(
                (0): Conv2d(18, 18, kernel_size=(3, 3), stride=(2, 2), padding=(1, 1), groups=18, bias=False)
                (1): SyncBatchNorm(18, eps=1e-05, momentum=0.1, affine=True, track_running_stats=True)
                (2): Conv2d(18, 36, kernel_size=(1, 1), stride=(1, 1), bias=False)
                (3): SyncBatchNorm(36, eps=1e-05, momentum=0.1, affine=True, track_running_stats=True)
              )
            )
            (1): None
            (2): Sequential(
              (0): Conv2d(72, 36, kernel_size=(1, 1), stride=(1, 1), bias=False)
              (1): SyncBatchNorm(36, eps=1e-05, momentum=0.1, affine=True, track_running_stats=True)
              (2): Upsample(scale_factor=2.0, mode=bilinear)
            )
          )
          (2): ModuleList(
            (0): Sequential(
              (0): Sequential(
                (0): Conv2d(18, 18, kernel_size=(3, 3), stride=(2, 2), padding=(1, 1), groups=18, bias=False)
                (1): SyncBatchNorm(18, eps=1e-05, momentum=0.1, affine=True, track_running_stats=True)
                (2): Conv2d(18, 18, kernel_size=(1, 1), stride=(1, 1), bias=False)
                (3): SyncBatchNorm(18, eps=1e-05, momentum=0.1, affine=True, track_running_stats=True)
                (4): ReLU(inplace=True)
              )
              (1): Sequential(
                (0): Conv2d(18, 18, kernel_size=(3, 3), stride=(2, 2), padding=(1, 1), groups=18, bias=False)
                (1): SyncBatchNorm(18, eps=1e-05, momentum=0.1, affine=True, track_running_stats=True)
                (2): Conv2d(18, 72, kernel_size=(1, 1), stride=(1, 1), bias=False)
                (3): SyncBatchNorm(72, eps=1e-05, momentum=0.1, affine=True, track_running_stats=True)
              )
            )
            (1): Sequential(
              (0): Sequential(
                (0): Conv2d(36, 36, kernel_size=(3, 3), stride=(2, 2), padding=(1, 1), groups=36, bias=False)
                (1): SyncBatchNorm(36, eps=1e-05, momentum=0.1, affine=True, track_running_stats=True)
                (2): Conv2d(36, 72, kernel_size=(1, 1), stride=(1, 1), bias=False)
                (3): SyncBatchNorm(72, eps=1e-05, momentum=0.1, affine=True, track_running_stats=True)
              )
            )
            (2): None
          )
        )
        (relu): ReLU(inplace=True)
      )
    )
    (transition3): ModuleList(
      (0): None
      (1): None
      (2): None
      (3): Sequential(
        (0): Sequential(
          (0): Conv2d(72, 144, kernel_size=(3, 3), stride=(2, 2), padding=(1, 1), bias=False)
          (1): SyncBatchNorm(144, eps=1e-05, momentum=0.1, affine=True, track_running_stats=True)
          (2): ReLU(inplace=True)
        )
      )
    )
    (stage4): Sequential(
      (0): HighResolutionTransformerModule(
        (branches): ModuleList(
          (0): Sequential(
            (0): GeneralTransformerBlockV2(
              (attn): InterlacedPoolAttention(
                (attn): MHA_(
                  (k_proj): Linear(in_features=18, out_features=18, bias=True)
                  (v_proj): Linear(in_features=18, out_features=18, bias=True)
                  (q_proj): Linear(in_features=18, out_features=18, bias=True)
                  (out_proj): Linear(in_features=18, out_features=18, bias=True)
                )
              )
              (norm1): LayerNorm((18,), eps=1e-06, elementwise_affine=True)
              (norm2): LayerNorm((18,), eps=1e-06, elementwise_affine=True)
              (drop_path): DropPath()
              (mlp): MlpDWBN(
                (fc1): Conv2d(18, 72, kernel_size=(1, 1), stride=(1, 1))
                (act1): GELU()
                (norm1): SyncBatchNorm(72, eps=1e-05, momentum=0.1, affine=True, track_running_stats=True)
                (dw3x3): Conv2d(72, 72, kernel_size=(3, 3), stride=(1, 1), padding=(1, 1), groups=72)
                (act2): Hardswish()
                (norm2): SyncBatchNorm(72, eps=1e-05, momentum=0.1, affine=True, track_running_stats=True)
                (fc2): Conv2d(72, 18, kernel_size=(1, 1), stride=(1, 1))
                (act3): GELU()
                (norm3): SyncBatchNorm(18, eps=1e-05, momentum=0.1, affine=True, track_running_stats=True)
                (drop): Dropout(p=0.0, inplace=False)
              )
            )
            (1): GeneralTransformerBlockV2(
              (attn): InterlacedPoolAttention(
                (attn): MHA_(
                  (k_proj): Linear(in_features=18, out_features=18, bias=True)
                  (v_proj): Linear(in_features=18, out_features=18, bias=True)
                  (q_proj): Linear(in_features=18, out_features=18, bias=True)
                  (out_proj): Linear(in_features=18, out_features=18, bias=True)
                )
              )
              (norm1): LayerNorm((18,), eps=1e-06, elementwise_affine=True)
              (norm2): LayerNorm((18,), eps=1e-06, elementwise_affine=True)
              (drop_path): DropPath()
              (mlp): MlpDWBN(
                (fc1): Conv2d(18, 72, kernel_size=(1, 1), stride=(1, 1))
                (act1): GELU()
                (norm1): SyncBatchNorm(72, eps=1e-05, momentum=0.1, affine=True, track_running_stats=True)
                (dw3x3): Conv2d(72, 72, kernel_size=(3, 3), stride=(1, 1), padding=(1, 1), groups=72)
                (act2): Hardswish()
                (norm2): SyncBatchNorm(72, eps=1e-05, momentum=0.1, affine=True, track_running_stats=True)
                (fc2): Conv2d(72, 18, kernel_size=(1, 1), stride=(1, 1))
                (act3): GELU()
                (norm3): SyncBatchNorm(18, eps=1e-05, momentum=0.1, affine=True, track_running_stats=True)
                (drop): Dropout(p=0.0, inplace=False)
              )
            )
          )
          (1): Sequential(
            (0): GeneralTransformerBlockV2(
              (attn): InterlacedPoolAttention(
                (attn): MHA_(
                  (k_proj): Linear(in_features=36, out_features=36, bias=True)
                  (v_proj): Linear(in_features=36, out_features=36, bias=True)
                  (q_proj): Linear(in_features=36, out_features=36, bias=True)
                  (out_proj): Linear(in_features=36, out_features=36, bias=True)
                )
              )
              (norm1): LayerNorm((36,), eps=1e-06, elementwise_affine=True)
              (norm2): LayerNorm((36,), eps=1e-06, elementwise_affine=True)
              (drop_path): DropPath()
              (mlp): MlpDWBN(
                (fc1): Conv2d(36, 144, kernel_size=(1, 1), stride=(1, 1))
                (act1): GELU()
                (norm1): SyncBatchNorm(144, eps=1e-05, momentum=0.1, affine=True, track_running_stats=True)
                (dw3x3): Conv2d(144, 144, kernel_size=(3, 3), stride=(1, 1), padding=(1, 1), groups=144)
                (act2): Hardswish()
                (norm2): SyncBatchNorm(144, eps=1e-05, momentum=0.1, affine=True, track_running_stats=True)
                (fc2): Conv2d(144, 36, kernel_size=(1, 1), stride=(1, 1))
                (act3): GELU()
                (norm3): SyncBatchNorm(36, eps=1e-05, momentum=0.1, affine=True, track_running_stats=True)
                (drop): Dropout(p=0.0, inplace=False)
              )
            )
            (1): GeneralTransformerBlockV2(
              (attn): InterlacedPoolAttention(
                (attn): MHA_(
                  (k_proj): Linear(in_features=36, out_features=36, bias=True)
                  (v_proj): Linear(in_features=36, out_features=36, bias=True)
                  (q_proj): Linear(in_features=36, out_features=36, bias=True)
                  (out_proj): Linear(in_features=36, out_features=36, bias=True)
                )
              )
              (norm1): LayerNorm((36,), eps=1e-06, elementwise_affine=True)
              (norm2): LayerNorm((36,), eps=1e-06, elementwise_affine=True)
              (drop_path): DropPath()
              (mlp): MlpDWBN(
                (fc1): Conv2d(36, 144, kernel_size=(1, 1), stride=(1, 1))
                (act1): GELU()
                (norm1): SyncBatchNorm(144, eps=1e-05, momentum=0.1, affine=True, track_running_stats=True)
                (dw3x3): Conv2d(144, 144, kernel_size=(3, 3), stride=(1, 1), padding=(1, 1), groups=144)
                (act2): Hardswish()
                (norm2): SyncBatchNorm(144, eps=1e-05, momentum=0.1, affine=True, track_running_stats=True)
                (fc2): Conv2d(144, 36, kernel_size=(1, 1), stride=(1, 1))
                (act3): GELU()
                (norm3): SyncBatchNorm(36, eps=1e-05, momentum=0.1, affine=True, track_running_stats=True)
                (drop): Dropout(p=0.0, inplace=False)
              )
            )
          )
          (2): Sequential(
            (0): GeneralTransformerBlockV2(
              (attn): InterlacedPoolAttention(
                (attn): MHA_(
                  (k_proj): Linear(in_features=72, out_features=72, bias=True)
                  (v_proj): Linear(in_features=72, out_features=72, bias=True)
                  (q_proj): Linear(in_features=72, out_features=72, bias=True)
                  (out_proj): Linear(in_features=72, out_features=72, bias=True)
                )
              )
              (norm1): LayerNorm((72,), eps=1e-06, elementwise_affine=True)
              (norm2): LayerNorm((72,), eps=1e-06, elementwise_affine=True)
              (drop_path): DropPath()
              (mlp): MlpDWBN(
                (fc1): Conv2d(72, 288, kernel_size=(1, 1), stride=(1, 1))
                (act1): GELU()
                (norm1): SyncBatchNorm(288, eps=1e-05, momentum=0.1, affine=True, track_running_stats=True)
                (dw3x3): Conv2d(288, 288, kernel_size=(3, 3), stride=(1, 1), padding=(1, 1), groups=288)
                (act2): Hardswish()
                (norm2): SyncBatchNorm(288, eps=1e-05, momentum=0.1, affine=True, track_running_stats=True)
                (fc2): Conv2d(288, 72, kernel_size=(1, 1), stride=(1, 1))
                (act3): GELU()
                (norm3): SyncBatchNorm(72, eps=1e-05, momentum=0.1, affine=True, track_running_stats=True)
                (drop): Dropout(p=0.0, inplace=False)
              )
            )
            (1): GeneralTransformerBlockV2(
              (attn): InterlacedPoolAttention(
                (attn): MHA_(
                  (k_proj): Linear(in_features=72, out_features=72, bias=True)
                  (v_proj): Linear(in_features=72, out_features=72, bias=True)
                  (q_proj): Linear(in_features=72, out_features=72, bias=True)
                  (out_proj): Linear(in_features=72, out_features=72, bias=True)
                )
              )
              (norm1): LayerNorm((72,), eps=1e-06, elementwise_affine=True)
              (norm2): LayerNorm((72,), eps=1e-06, elementwise_affine=True)
              (drop_path): DropPath()
              (mlp): MlpDWBN(
                (fc1): Conv2d(72, 288, kernel_size=(1, 1), stride=(1, 1))
                (act1): GELU()
                (norm1): SyncBatchNorm(288, eps=1e-05, momentum=0.1, affine=True, track_running_stats=True)
                (dw3x3): Conv2d(288, 288, kernel_size=(3, 3), stride=(1, 1), padding=(1, 1), groups=288)
                (act2): Hardswish()
                (norm2): SyncBatchNorm(288, eps=1e-05, momentum=0.1, affine=True, track_running_stats=True)
                (fc2): Conv2d(288, 72, kernel_size=(1, 1), stride=(1, 1))
                (act3): GELU()
                (norm3): SyncBatchNorm(72, eps=1e-05, momentum=0.1, affine=True, track_running_stats=True)
                (drop): Dropout(p=0.0, inplace=False)
              )
            )
          )
          (3): Sequential(
            (0): GeneralTransformerBlockV2(
              (attn): InterlacedPoolAttention(
                (attn): MHA_(
                  (k_proj): Linear(in_features=144, out_features=144, bias=True)
                  (v_proj): Linear(in_features=144, out_features=144, bias=True)
                  (q_proj): Linear(in_features=144, out_features=144, bias=True)
                  (out_proj): Linear(in_features=144, out_features=144, bias=True)
                )
              )
              (norm1): LayerNorm((144,), eps=1e-06, elementwise_affine=True)
              (norm2): LayerNorm((144,), eps=1e-06, elementwise_affine=True)
              (drop_path): DropPath()
              (mlp): MlpDWBN(
                (fc1): Conv2d(144, 576, kernel_size=(1, 1), stride=(1, 1))
                (act1): GELU()
                (norm1): SyncBatchNorm(576, eps=1e-05, momentum=0.1, affine=True, track_running_stats=True)
                (dw3x3): Conv2d(576, 576, kernel_size=(3, 3), stride=(1, 1), padding=(1, 1), groups=576)
                (act2): Hardswish()
                (norm2): SyncBatchNorm(576, eps=1e-05, momentum=0.1, affine=True, track_running_stats=True)
                (fc2): Conv2d(576, 144, kernel_size=(1, 1), stride=(1, 1))
                (act3): GELU()
                (norm3): SyncBatchNorm(144, eps=1e-05, momentum=0.1, affine=True, track_running_stats=True)
                (drop): Dropout(p=0.0, inplace=False)
              )
            )
            (1): GeneralTransformerBlockV2(
              (attn): InterlacedPoolAttention(
                (attn): MHA_(
                  (k_proj): Linear(in_features=144, out_features=144, bias=True)
                  (v_proj): Linear(in_features=144, out_features=144, bias=True)
                  (q_proj): Linear(in_features=144, out_features=144, bias=True)
                  (out_proj): Linear(in_features=144, out_features=144, bias=True)
                )
              )
              (norm1): LayerNorm((144,), eps=1e-06, elementwise_affine=True)
              (norm2): LayerNorm((144,), eps=1e-06, elementwise_affine=True)
              (drop_path): DropPath()
              (mlp): MlpDWBN(
                (fc1): Conv2d(144, 576, kernel_size=(1, 1), stride=(1, 1))
                (act1): GELU()
                (norm1): SyncBatchNorm(576, eps=1e-05, momentum=0.1, affine=True, track_running_stats=True)
                (dw3x3): Conv2d(576, 576, kernel_size=(3, 3), stride=(1, 1), padding=(1, 1), groups=576)
                (act2): Hardswish()
                (norm2): SyncBatchNorm(576, eps=1e-05, momentum=0.1, affine=True, track_running_stats=True)
                (fc2): Conv2d(576, 144, kernel_size=(1, 1), stride=(1, 1))
                (act3): GELU()
                (norm3): SyncBatchNorm(144, eps=1e-05, momentum=0.1, affine=True, track_running_stats=True)
                (drop): Dropout(p=0.0, inplace=False)
              )
            )
          )
        )
        (fuse_layers): ModuleList(
          (0): ModuleList(
            (0): None
            (1): Sequential(
              (0): Conv2d(36, 18, kernel_size=(1, 1), stride=(1, 1), bias=False)
              (1): SyncBatchNorm(18, eps=1e-05, momentum=0.1, affine=True, track_running_stats=True)
              (2): Upsample(scale_factor=2.0, mode=bilinear)
            )
            (2): Sequential(
              (0): Conv2d(72, 18, kernel_size=(1, 1), stride=(1, 1), bias=False)
              (1): SyncBatchNorm(18, eps=1e-05, momentum=0.1, affine=True, track_running_stats=True)
              (2): Upsample(scale_factor=4.0, mode=bilinear)
            )
            (3): Sequential(
              (0): Conv2d(144, 18, kernel_size=(1, 1), stride=(1, 1), bias=False)
              (1): SyncBatchNorm(18, eps=1e-05, momentum=0.1, affine=True, track_running_stats=True)
              (2): Upsample(scale_factor=8.0, mode=bilinear)
            )
          )
          (1): ModuleList(
            (0): Sequential(
              (0): Sequential(
                (0): Conv2d(18, 18, kernel_size=(3, 3), stride=(2, 2), padding=(1, 1), groups=18, bias=False)
                (1): SyncBatchNorm(18, eps=1e-05, momentum=0.1, affine=True, track_running_stats=True)
                (2): Conv2d(18, 36, kernel_size=(1, 1), stride=(1, 1), bias=False)
                (3): SyncBatchNorm(36, eps=1e-05, momentum=0.1, affine=True, track_running_stats=True)
              )
            )
            (1): None
            (2): Sequential(
              (0): Conv2d(72, 36, kernel_size=(1, 1), stride=(1, 1), bias=False)
              (1): SyncBatchNorm(36, eps=1e-05, momentum=0.1, affine=True, track_running_stats=True)
              (2): Upsample(scale_factor=2.0, mode=bilinear)
            )
            (3): Sequential(
              (0): Conv2d(144, 36, kernel_size=(1, 1), stride=(1, 1), bias=False)
              (1): SyncBatchNorm(36, eps=1e-05, momentum=0.1, affine=True, track_running_stats=True)
              (2): Upsample(scale_factor=4.0, mode=bilinear)
            )
          )
          (2): ModuleList(
            (0): Sequential(
              (0): Sequential(
                (0): Conv2d(18, 18, kernel_size=(3, 3), stride=(2, 2), padding=(1, 1), groups=18, bias=False)
                (1): SyncBatchNorm(18, eps=1e-05, momentum=0.1, affine=True, track_running_stats=True)
                (2): Conv2d(18, 18, kernel_size=(1, 1), stride=(1, 1), bias=False)
                (3): SyncBatchNorm(18, eps=1e-05, momentum=0.1, affine=True, track_running_stats=True)
                (4): ReLU(inplace=True)
              )
              (1): Sequential(
                (0): Conv2d(18, 18, kernel_size=(3, 3), stride=(2, 2), padding=(1, 1), groups=18, bias=False)
                (1): SyncBatchNorm(18, eps=1e-05, momentum=0.1, affine=True, track_running_stats=True)
                (2): Conv2d(18, 72, kernel_size=(1, 1), stride=(1, 1), bias=False)
                (3): SyncBatchNorm(72, eps=1e-05, momentum=0.1, affine=True, track_running_stats=True)
              )
            )
            (1): Sequential(
              (0): Sequential(
                (0): Conv2d(36, 36, kernel_size=(3, 3), stride=(2, 2), padding=(1, 1), groups=36, bias=False)
                (1): SyncBatchNorm(36, eps=1e-05, momentum=0.1, affine=True, track_running_stats=True)
                (2): Conv2d(36, 72, kernel_size=(1, 1), stride=(1, 1), bias=False)
                (3): SyncBatchNorm(72, eps=1e-05, momentum=0.1, affine=True, track_running_stats=True)
              )
            )
            (2): None
            (3): Sequential(
              (0): Conv2d(144, 72, kernel_size=(1, 1), stride=(1, 1), bias=False)
              (1): SyncBatchNorm(72, eps=1e-05, momentum=0.1, affine=True, track_running_stats=True)
              (2): Upsample(scale_factor=2.0, mode=bilinear)
            )
          )
          (3): ModuleList(
            (0): Sequential(
              (0): Sequential(
                (0): Conv2d(18, 18, kernel_size=(3, 3), stride=(2, 2), padding=(1, 1), groups=18, bias=False)
                (1): SyncBatchNorm(18, eps=1e-05, momentum=0.1, affine=True, track_running_stats=True)
                (2): Conv2d(18, 18, kernel_size=(1, 1), stride=(1, 1), bias=False)
                (3): SyncBatchNorm(18, eps=1e-05, momentum=0.1, affine=True, track_running_stats=True)
                (4): ReLU(inplace=True)
              )
              (1): Sequential(
                (0): Conv2d(18, 18, kernel_size=(3, 3), stride=(2, 2), padding=(1, 1), groups=18, bias=False)
                (1): SyncBatchNorm(18, eps=1e-05, momentum=0.1, affine=True, track_running_stats=True)
                (2): Conv2d(18, 18, kernel_size=(1, 1), stride=(1, 1), bias=False)
                (3): SyncBatchNorm(18, eps=1e-05, momentum=0.1, affine=True, track_running_stats=True)
                (4): ReLU(inplace=True)
              )
              (2): Sequential(
                (0): Conv2d(18, 18, kernel_size=(3, 3), stride=(2, 2), padding=(1, 1), groups=18, bias=False)
                (1): SyncBatchNorm(18, eps=1e-05, momentum=0.1, affine=True, track_running_stats=True)
                (2): Conv2d(18, 144, kernel_size=(1, 1), stride=(1, 1), bias=False)
                (3): SyncBatchNorm(144, eps=1e-05, momentum=0.1, affine=True, track_running_stats=True)
              )
            )
            (1): Sequential(
              (0): Sequential(
                (0): Conv2d(36, 36, kernel_size=(3, 3), stride=(2, 2), padding=(1, 1), groups=36, bias=False)
                (1): SyncBatchNorm(36, eps=1e-05, momentum=0.1, affine=True, track_running_stats=True)
                (2): Conv2d(36, 36, kernel_size=(1, 1), stride=(1, 1), bias=False)
                (3): SyncBatchNorm(36, eps=1e-05, momentum=0.1, affine=True, track_running_stats=True)
                (4): ReLU(inplace=True)
              )
              (1): Sequential(
                (0): Conv2d(36, 36, kernel_size=(3, 3), stride=(2, 2), padding=(1, 1), groups=36, bias=False)
                (1): SyncBatchNorm(36, eps=1e-05, momentum=0.1, affine=True, track_running_stats=True)
                (2): Conv2d(36, 144, kernel_size=(1, 1), stride=(1, 1), bias=False)
                (3): SyncBatchNorm(144, eps=1e-05, momentum=0.1, affine=True, track_running_stats=True)
              )
            )
            (2): Sequential(
              (0): Sequential(
                (0): Conv2d(72, 72, kernel_size=(3, 3), stride=(2, 2), padding=(1, 1), groups=72, bias=False)
                (1): SyncBatchNorm(72, eps=1e-05, momentum=0.1, affine=True, track_running_stats=True)
                (2): Conv2d(72, 144, kernel_size=(1, 1), stride=(1, 1), bias=False)
                (3): SyncBatchNorm(144, eps=1e-05, momentum=0.1, affine=True, track_running_stats=True)
              )
            )
            (3): None
          )
        )
        (relu): ReLU(inplace=True)
      )
      (1): HighResolutionTransformerModule(
        (branches): ModuleList(
          (0): Sequential(
            (0): GeneralTransformerBlockV2(
              (attn): InterlacedPoolAttention(
                (attn): MHA_(
                  (k_proj): Linear(in_features=18, out_features=18, bias=True)
                  (v_proj): Linear(in_features=18, out_features=18, bias=True)
                  (q_proj): Linear(in_features=18, out_features=18, bias=True)
                  (out_proj): Linear(in_features=18, out_features=18, bias=True)
                )
              )
              (norm1): LayerNorm((18,), eps=1e-06, elementwise_affine=True)
              (norm2): LayerNorm((18,), eps=1e-06, elementwise_affine=True)
              (drop_path): DropPath()
              (mlp): MlpDWBN(
                (fc1): Conv2d(18, 72, kernel_size=(1, 1), stride=(1, 1))
                (act1): GELU()
                (norm1): SyncBatchNorm(72, eps=1e-05, momentum=0.1, affine=True, track_running_stats=True)
                (dw3x3): Conv2d(72, 72, kernel_size=(3, 3), stride=(1, 1), padding=(1, 1), groups=72)
                (act2): Hardswish()
                (norm2): SyncBatchNorm(72, eps=1e-05, momentum=0.1, affine=True, track_running_stats=True)
                (fc2): Conv2d(72, 18, kernel_size=(1, 1), stride=(1, 1))
                (act3): GELU()
                (norm3): SyncBatchNorm(18, eps=1e-05, momentum=0.1, affine=True, track_running_stats=True)
                (drop): Dropout(p=0.0, inplace=False)
              )
            )
            (1): GeneralTransformerBlockV2(
              (attn): InterlacedPoolAttention(
                (attn): MHA_(
                  (k_proj): Linear(in_features=18, out_features=18, bias=True)
                  (v_proj): Linear(in_features=18, out_features=18, bias=True)
                  (q_proj): Linear(in_features=18, out_features=18, bias=True)
                  (out_proj): Linear(in_features=18, out_features=18, bias=True)
                )
              )
              (norm1): LayerNorm((18,), eps=1e-06, elementwise_affine=True)
              (norm2): LayerNorm((18,), eps=1e-06, elementwise_affine=True)
              (drop_path): DropPath()
              (mlp): MlpDWBN(
                (fc1): Conv2d(18, 72, kernel_size=(1, 1), stride=(1, 1))
                (act1): GELU()
                (norm1): SyncBatchNorm(72, eps=1e-05, momentum=0.1, affine=True, track_running_stats=True)
                (dw3x3): Conv2d(72, 72, kernel_size=(3, 3), stride=(1, 1), padding=(1, 1), groups=72)
                (act2): Hardswish()
                (norm2): SyncBatchNorm(72, eps=1e-05, momentum=0.1, affine=True, track_running_stats=True)
                (fc2): Conv2d(72, 18, kernel_size=(1, 1), stride=(1, 1))
                (act3): GELU()
                (norm3): SyncBatchNorm(18, eps=1e-05, momentum=0.1, affine=True, track_running_stats=True)
                (drop): Dropout(p=0.0, inplace=False)
              )
            )
          )
          (1): Sequential(
            (0): GeneralTransformerBlockV2(
              (attn): InterlacedPoolAttention(
                (attn): MHA_(
                  (k_proj): Linear(in_features=36, out_features=36, bias=True)
                  (v_proj): Linear(in_features=36, out_features=36, bias=True)
                  (q_proj): Linear(in_features=36, out_features=36, bias=True)
                  (out_proj): Linear(in_features=36, out_features=36, bias=True)
                )
              )
              (norm1): LayerNorm((36,), eps=1e-06, elementwise_affine=True)
              (norm2): LayerNorm((36,), eps=1e-06, elementwise_affine=True)
              (drop_path): DropPath()
              (mlp): MlpDWBN(
                (fc1): Conv2d(36, 144, kernel_size=(1, 1), stride=(1, 1))
                (act1): GELU()
                (norm1): SyncBatchNorm(144, eps=1e-05, momentum=0.1, affine=True, track_running_stats=True)
                (dw3x3): Conv2d(144, 144, kernel_size=(3, 3), stride=(1, 1), padding=(1, 1), groups=144)
                (act2): Hardswish()
                (norm2): SyncBatchNorm(144, eps=1e-05, momentum=0.1, affine=True, track_running_stats=True)
                (fc2): Conv2d(144, 36, kernel_size=(1, 1), stride=(1, 1))
                (act3): GELU()
                (norm3): SyncBatchNorm(36, eps=1e-05, momentum=0.1, affine=True, track_running_stats=True)
                (drop): Dropout(p=0.0, inplace=False)
              )
            )
            (1): GeneralTransformerBlockV2(
              (attn): InterlacedPoolAttention(
                (attn): MHA_(
                  (k_proj): Linear(in_features=36, out_features=36, bias=True)
                  (v_proj): Linear(in_features=36, out_features=36, bias=True)
                  (q_proj): Linear(in_features=36, out_features=36, bias=True)
                  (out_proj): Linear(in_features=36, out_features=36, bias=True)
                )
              )
              (norm1): LayerNorm((36,), eps=1e-06, elementwise_affine=True)
              (norm2): LayerNorm((36,), eps=1e-06, elementwise_affine=True)
              (drop_path): DropPath()
              (mlp): MlpDWBN(
                (fc1): Conv2d(36, 144, kernel_size=(1, 1), stride=(1, 1))
                (act1): GELU()
                (norm1): SyncBatchNorm(144, eps=1e-05, momentum=0.1, affine=True, track_running_stats=True)
                (dw3x3): Conv2d(144, 144, kernel_size=(3, 3), stride=(1, 1), padding=(1, 1), groups=144)
                (act2): Hardswish()
                (norm2): SyncBatchNorm(144, eps=1e-05, momentum=0.1, affine=True, track_running_stats=True)
                (fc2): Conv2d(144, 36, kernel_size=(1, 1), stride=(1, 1))
                (act3): GELU()
                (norm3): SyncBatchNorm(36, eps=1e-05, momentum=0.1, affine=True, track_running_stats=True)
                (drop): Dropout(p=0.0, inplace=False)
              )
            )
          )
          (2): Sequential(
            (0): GeneralTransformerBlockV2(
              (attn): InterlacedPoolAttention(
                (attn): MHA_(
                  (k_proj): Linear(in_features=72, out_features=72, bias=True)
                  (v_proj): Linear(in_features=72, out_features=72, bias=True)
                  (q_proj): Linear(in_features=72, out_features=72, bias=True)
                  (out_proj): Linear(in_features=72, out_features=72, bias=True)
                )
              )
              (norm1): LayerNorm((72,), eps=1e-06, elementwise_affine=True)
              (norm2): LayerNorm((72,), eps=1e-06, elementwise_affine=True)
              (drop_path): DropPath()
              (mlp): MlpDWBN(
                (fc1): Conv2d(72, 288, kernel_size=(1, 1), stride=(1, 1))
                (act1): GELU()
                (norm1): SyncBatchNorm(288, eps=1e-05, momentum=0.1, affine=True, track_running_stats=True)
                (dw3x3): Conv2d(288, 288, kernel_size=(3, 3), stride=(1, 1), padding=(1, 1), groups=288)
                (act2): Hardswish()
                (norm2): SyncBatchNorm(288, eps=1e-05, momentum=0.1, affine=True, track_running_stats=True)
                (fc2): Conv2d(288, 72, kernel_size=(1, 1), stride=(1, 1))
                (act3): GELU()
                (norm3): SyncBatchNorm(72, eps=1e-05, momentum=0.1, affine=True, track_running_stats=True)
                (drop): Dropout(p=0.0, inplace=False)
              )
            )
            (1): GeneralTransformerBlockV2(
              (attn): InterlacedPoolAttention(
                (attn): MHA_(
                  (k_proj): Linear(in_features=72, out_features=72, bias=True)
                  (v_proj): Linear(in_features=72, out_features=72, bias=True)
                  (q_proj): Linear(in_features=72, out_features=72, bias=True)
                  (out_proj): Linear(in_features=72, out_features=72, bias=True)
                )
              )
              (norm1): LayerNorm((72,), eps=1e-06, elementwise_affine=True)
              (norm2): LayerNorm((72,), eps=1e-06, elementwise_affine=True)
              (drop_path): DropPath()
              (mlp): MlpDWBN(
                (fc1): Conv2d(72, 288, kernel_size=(1, 1), stride=(1, 1))
                (act1): GELU()
                (norm1): SyncBatchNorm(288, eps=1e-05, momentum=0.1, affine=True, track_running_stats=True)
                (dw3x3): Conv2d(288, 288, kernel_size=(3, 3), stride=(1, 1), padding=(1, 1), groups=288)
                (act2): Hardswish()
                (norm2): SyncBatchNorm(288, eps=1e-05, momentum=0.1, affine=True, track_running_stats=True)
                (fc2): Conv2d(288, 72, kernel_size=(1, 1), stride=(1, 1))
                (act3): GELU()
                (norm3): SyncBatchNorm(72, eps=1e-05, momentum=0.1, affine=True, track_running_stats=True)
                (drop): Dropout(p=0.0, inplace=False)
              )
            )
          )
          (3): Sequential(
            (0): GeneralTransformerBlockV2(
              (attn): InterlacedPoolAttention(
                (attn): MHA_(
                  (k_proj): Linear(in_features=144, out_features=144, bias=True)
                  (v_proj): Linear(in_features=144, out_features=144, bias=True)
                  (q_proj): Linear(in_features=144, out_features=144, bias=True)
                  (out_proj): Linear(in_features=144, out_features=144, bias=True)
                )
              )
              (norm1): LayerNorm((144,), eps=1e-06, elementwise_affine=True)
              (norm2): LayerNorm((144,), eps=1e-06, elementwise_affine=True)
              (drop_path): DropPath()
              (mlp): MlpDWBN(
                (fc1): Conv2d(144, 576, kernel_size=(1, 1), stride=(1, 1))
                (act1): GELU()
                (norm1): SyncBatchNorm(576, eps=1e-05, momentum=0.1, affine=True, track_running_stats=True)
                (dw3x3): Conv2d(576, 576, kernel_size=(3, 3), stride=(1, 1), padding=(1, 1), groups=576)
                (act2): Hardswish()
                (norm2): SyncBatchNorm(576, eps=1e-05, momentum=0.1, affine=True, track_running_stats=True)
                (fc2): Conv2d(576, 144, kernel_size=(1, 1), stride=(1, 1))
                (act3): GELU()
                (norm3): SyncBatchNorm(144, eps=1e-05, momentum=0.1, affine=True, track_running_stats=True)
                (drop): Dropout(p=0.0, inplace=False)
              )
            )
            (1): GeneralTransformerBlockV2(
              (attn): InterlacedPoolAttention(
                (attn): MHA_(
                  (k_proj): Linear(in_features=144, out_features=144, bias=True)
                  (v_proj): Linear(in_features=144, out_features=144, bias=True)
                  (q_proj): Linear(in_features=144, out_features=144, bias=True)
                  (out_proj): Linear(in_features=144, out_features=144, bias=True)
                )
              )
              (norm1): LayerNorm((144,), eps=1e-06, elementwise_affine=True)
              (norm2): LayerNorm((144,), eps=1e-06, elementwise_affine=True)
              (drop_path): DropPath()
              (mlp): MlpDWBN(
                (fc1): Conv2d(144, 576, kernel_size=(1, 1), stride=(1, 1))
                (act1): GELU()
                (norm1): SyncBatchNorm(576, eps=1e-05, momentum=0.1, affine=True, track_running_stats=True)
                (dw3x3): Conv2d(576, 576, kernel_size=(3, 3), stride=(1, 1), padding=(1, 1), groups=576)
                (act2): Hardswish()
                (norm2): SyncBatchNorm(576, eps=1e-05, momentum=0.1, affine=True, track_running_stats=True)
                (fc2): Conv2d(576, 144, kernel_size=(1, 1), stride=(1, 1))
                (act3): GELU()
                (norm3): SyncBatchNorm(144, eps=1e-05, momentum=0.1, affine=True, track_running_stats=True)
                (drop): Dropout(p=0.0, inplace=False)
              )
            )
          )
        )
        (fuse_layers): ModuleList(
          (0): ModuleList(
            (0): None
            (1): Sequential(
              (0): Conv2d(36, 18, kernel_size=(1, 1), stride=(1, 1), bias=False)
              (1): SyncBatchNorm(18, eps=1e-05, momentum=0.1, affine=True, track_running_stats=True)
              (2): Upsample(scale_factor=2.0, mode=bilinear)
            )
            (2): Sequential(
              (0): Conv2d(72, 18, kernel_size=(1, 1), stride=(1, 1), bias=False)
              (1): SyncBatchNorm(18, eps=1e-05, momentum=0.1, affine=True, track_running_stats=True)
              (2): Upsample(scale_factor=4.0, mode=bilinear)
            )
            (3): Sequential(
              (0): Conv2d(144, 18, kernel_size=(1, 1), stride=(1, 1), bias=False)
              (1): SyncBatchNorm(18, eps=1e-05, momentum=0.1, affine=True, track_running_stats=True)
              (2): Upsample(scale_factor=8.0, mode=bilinear)
            )
          )
        )
        (relu): ReLU(inplace=True)
      )
    )
  )
  (keypoint_head): TopDownSimpleHead(
    (loss): JointsMSELoss(
      (criterion): MSELoss()
    )
    (deconv_layers): Identity()
    (final_layer): Conv2d(18, 17, kernel_size=(1, 1), stride=(1, 1))
  )
)
loading annotations into memory...
Done (t=9.55s)
creating index...
index created!
=> num_images: 118287
=> load 149813 samples
loading annotations into memory...
Done (t=0.41s)
creating index...
index created!
=> Total boxes: 104125
=> Total boxes after filter low score@0.0: 104125
=> num_images: 5000
=> load 104125 samples
2021-05-04 07:03:19,773 - mmpose - INFO - Start running, host: yuhui@openseg-node, work_dir: /data/home/yuhui/teamdrive/yuyua/code/pose/mmpose-logs/dw_hrvit_w18_small_v2_coco_256x192_bs16_8xgpu_syncbn_adamw_lr5e4_wd1e5_dp02
…
